model_cnn.pth (torch, 435608 bytes, 8 tensors)

conv1.weight f4 [6, 3, 5, 5]
000000 f3 b7 aa 3d a3 64 22 bd 32 57 7e bd ed 67 3d 3e
       0.08335867 -0.039646756 -0.062094875 0.18496676
000010 96 d9 82 3c 84 2e 44 3d 44 92 62 bd 98 cd 2f be
       0.015972894 0.047895923 -0.05531527 -0.17168272
000020 65 b8 2f 3e cb 34 13 3e ee a0 89 3c c0 ab 52 bd
       0.17160185 0.14375608 0.01680037 -0.051433325
000030 8a 56 c8 be ba fb 70 bd b3 df 8c 3c 2c a1 d2 bd
       -0.39128524 -0.058833815 0.017196512 -0.10284647
000040 da 41 31 3e eb 73 4c be 9d 35 35 bd d2 b7 b9 bc
       0.17310277 -0.19966094 -0.044240583 -0.02267066
000050 63 23 6c bc 92 1e 24 3e 79 5e 12 3e e6 20 8e bd
       -0.014412734 0.16027287 0.14293851 -0.06939869
000060 a1 19 9e 3d 16 0f 44 3d 60 6b d4 bd 5a 32 5c bb
       0.07719732 0.04786595 -0.10372043 -0.0033599348
000070 f6 03 d1 3d 5d a7 a4 3c c6 5b cc 3d 9b 85 a9 bd
       0.102058336 0.020099336 0.09978442 -0.08277436
000080 a3 d9 81 be 30 55 7d 3e 2f a8 0b bc e0 fa c4 3b
       -0.25361356 0.24739528 -0.008523985 0.006011352
000090 23 98 88 3d 0e 22 de be 18 8f b6 3d 34 82 ba 3d
       0.06669643 -0.43385357 0.08914012 0.091068655
0000a0 ef 2e 8f bd dd d9 4c 3e 0a a0 07 be ab d3 35 be
       -0.06991374 0.20004983 -0.13244644 -0.17756526
0000b0 79 11 f4 3c 22 ad d1 bd 08 9b 4b 3e e6 02 d8 3d
       0.029793488 -0.102381006 0.19883358 0.10547428
0000c0 00 f0 54 bd 62 e8 06 bd 55 a9 95 bd 78 da 8d 3d
       -0.051986694 -0.03293646 -0.07307688 0.06926435
0000d0 96 43 d7 bd ca a7 06 3e 64 cf 99 bd 09 16 16 3e
       -0.10510938 0.13149944 -0.0751026 0.14656843
0000e0 47 13 86 3c b4 58 69 be 08 91 04 3e 76 65 14 bd
       0.016366614 -0.22787744 0.1294595 -0.036229573
0000f0 c1 87 6f bc 32 74 54 3e 5f 76 98 be 33 6d 30 3d
       -0.014619769 0.2074745 -0.2977781 0.04307289
000100 88 6e 7f bd 4e d4 b0 bd 7f 5c 45 3e 7e 9f 04 be
       -0.06236127 -0.08634244 0.19273566 -0.12951466
000110 18 ed f0 3c c4 51 12 3c 70 ee 4d 3c 67 39 0e 3e
       0.02940993 0.008930627 0.012569055 0.13889085
000120 e9 fa 50 3d 45 17 72 bd 19 01 04 bc 42 d1 06 3d
       0.051020537 -0.059104223 -0.008056902 0.032914408
000130 c9 ea d8 3d 57 71 4b 3e 51 df 45 3e 8e 6f 84 3d
       0.10591657 0.19867454 0.1932347 0.0646659
000140 ec a0 3b 3d 7f 66 09 be 3d a3 4a be 9c aa 67 be
       0.045807764 -0.13418005 -0.19788833 -0.22623676
000150 8a 7a 1f bd 14 50 45 bd 70 b7 b8 bd 5d 1f 13 be
       -0.03893522 -0.04817207 -0.09019363 -0.14367433
000160 1d 00 17 be 26 09 91 bb dd fb e5 ba 65 fe 78 3d
       -0.14746137 -0.0044261394 -0.0017546375 0.060789485
000170 c9 72 9e 3d 3c a6 84 bd d1 2a df 3d b5 b4 d1 bc
       0.07736737 -0.06477019 0.108968385 -0.025598863
000180 91 c4 66 3d 65 95 56 3d ed 09 7f 3c 8e 90 01 3e
       0.056339804 0.052388567 0.015566331 0.126528
000190 f1 6f 0d 3e a7 8b 87 3e 04 18 6e 3e 4c 80 49 3e
       0.13812234 0.26473734 0.23251349 0.19677848
0001a0 80 19 17 3e 0b a0 04 3e 2c 92 5b bd 0d 9e 03 be
       0.14755821 0.12951677 -0.053606197 -0.1285326
0001b0 46 a5 be bd fe c9 0d be 8a a4 c3 bd e7 61 00 be
       -0.09308867 -0.13846585 -0.09552868 -0.12537347
0001c0 1c 79 64 be a7 df 13 be a2 2b ac 3d f6 32 d5 3b
       -0.22311825 -0.14440785 0.0840676 0.006506319
0001d0 ca 66 e7 bc cb 2f 4b bc c0 a7 37 bd a0 4c f5 bd
       -0.028247256 -0.012401531 -0.044837713 -0.11977506
0001e0 24 7d d2 bd 6b 09 18 bd e0 14 0c 3d 81 21 cb bb
       -0.10277775 -0.037118357 0.034199595 -0.0061990623
0001f0 d3 6e d2 bd 32 ef 78 bd e6 a0 61 3e eb 6c 13 3e
       -0.10275044 -0.06077499 0.22034034 0.14397018
000200 1a 29 af 3d 53 ab d9 bd 2b 1c 8b 3d ea c4 c7 bd
       0.085527614 -0.106283806 0.06792482 -0.09754355
000210 1a e3 c2 ba 0a 55 d9 3c 32 4b 11 bd 90 16 e5 bd
       -0.0014868707 0.026529808 -0.035472102 -0.11185944
000220 5e 6f 1a be 4c 3a 05 be 27 1c 72 bb 93 06 79 bd
       -0.15081546 -0.1301052 -0.003694305 -0.060797285
000230 e1 42 bc bc 03 b8 e6 bd ff 7f 77 3b 74 0f 17 3e
       -0.02298111 -0.11265566 0.00377655 0.14751989
000240 d6 8d 0d bc 2f 23 b0 3d 98 b9 95 3d f8 11 e5 ba
       -0.008639773 0.08600461 0.0731079 -0.0017476669
000250 78 1b 59 bb dd 56 fa 3d 82 3f 62 3d 9c dc b9 bc
       -0.0033127945 0.12223599 0.055236347 -0.022688203
000260 e7 65 b4 bc 82 9b 9b bd 9b 7a 9a 3d d5 f4 b7 bd
       -0.022021247 -0.0759802 0.075429164 -0.08982245
000270 f1 04 ef 39 7d 17 c3 bd 3d 0d db 3c eb 34 15 bd
       0.00045589314 -0.095259644 0.026739711 -0.03642742
000280 5e 01 85 3d 73 ca c0 bd 08 6e b7 3b 6d 9d 62 3d
       0.064944014 -0.09413614 0.0055978335 0.055325914
000290 04 1c b1 bc 1c 73 6f 3b 75 4a 5d 3d c9 a1 92 3d
       -0.021619804 0.0036537116 0.054026086 0.07159764
0002a0 d6 5d c5 bd b3 45 80 bd 91 bf 6b 3d e5 3a 97 3c
       -0.096370384 -0.06263294 0.05755574 0.0184607
0002b0 f3 0b 12 be a4 95 d4 bc 60 6e 0b bd 05 b4 75 bd
       -0.14262371 -0.02595026 -0.03404081 -0.059986133
0002c0 ed 2c 01 bd 87 34 47 bb f7 b1 df bd 7f 83 6a be
       -0.031536985 -0.00303963 -0.10922616 -0.22901724
0002d0 38 1e 15 3c a1 02 2b 3c b2 8c a7 3d 8d 80 54 bd
       0.009101443 0.0104376385 0.081811324 -0.051880408
0002e0 4e 82 e0 3c d0 6f 1a be 04 83 e4 bd da 51 80 bd
       0.027405884 -0.15081716 -0.11157802 -0.06265612
0002f0 36 59 fd bd cd 24 78 bd a9 2b da bd 59 9a 0d be
       -0.12370531 -0.06058197 -0.10652859 -0.1382841
000300 8a 51 cc bd 19 01 58 3b 07 77 6a bd 9d b5 93 3c
       -0.0997649 0.0032959639 -0.05724242 0.018030936
000310 8d 87 12 be df 07 5c 3c 5f f2 d6 bd 06 f0 38 bd
       -0.14309521 0.013429611 -0.10495447 -0.04515078
000320 59 5b 19 3e dc 75 5d 3e 34 63 23 3e 45 78 05 3e
       0.14976253 0.21626991 0.15955812 0.1303416
000330 b8 10 a6 3c ab f3 28 3e 90 a3 05 3e 5a 31 20 3e
       0.020271644 0.16499202 0.13050675 0.15643826
000340 37 74 2d 3e ae 1e 1e 3d 46 b6 2d 3e 85 bc 84 3e
       0.16938864 0.038603477 0.16964063 0.2592508
000350 66 76 ec 3d 2f df 9d 3d 3d a3 5b 3d 8c 71 51 3d
       0.1154602 0.077085845 0.053622473 0.051133677
000360 27 05 05 3e cd 14 ec 3c a8 f1 bc 3d 34 f7 a5 3d
       0.12990247 0.028818512 0.0922578 0.08103791
000370 22 17 8d bd 07 21 14 3e be fe db 3d 41 a9 bf 3d
       -0.06889178 0.14465724 0.107419476 0.093584545
000380 c6 8f 36 bd b1 ee 6c 3d 7e 34 c9 bd b2 02 66 3d
       -0.044570707 0.05784482 -0.09824465 0.056154914
000390 fd 55 f0 3c c2 4f a5 bd d2 a5 d4 3d ef 7d cd 3d
       0.029337877 -0.08071853 0.1038319 0.100337856
0003a0 52 c2 46 3e 3f ed 98 3d 44 5b 9f 3c 04 89 0b 3e
       0.19410065 0.07467126 0.019452699 0.13626486
0003b0 6d 26 42 3e 35 79 39 3e fb 93 1f 3e 0a 7f 29 3d
       0.18959971 0.18112643 0.15583794 0.04138092
0003c0 a0 b9 29 3d d9 8c 7d 3e 9d d3 46 3e dd 77 14 3e
       0.04143679 0.2476076 0.19416662 0.14498849
0003d0 5a 17 f3 3d 45 75 c8 bb 0a 8e a7 3c 49 66 b0 3d
       0.11869688 -0.0061174952 0.020453472 0.08613259
0003e0 0f d0 33 bd d6 4a d0 bc e4 c9 bd bd 24 60 5e bb
       -0.043899592 -0.02542631 -0.09267023 -0.0033931816
0003f0 38 79 ae bd 63 cc 33 bd 4b a6 f6 bc ca c2 ef bc
       -0.085192144 -0.04389609 -0.030108592 -0.029267687

conv1.bias f4 [6]
000000 7c fc c2 3c fb bb a5 bc 0f 12 71 bd a1 8e 31 3e
       0.023802035 -0.020231238 -0.058855113 0.17339565
000010 7b c5 10 bd 48 47 30 be
       -0.035344582 -0.17214692

conv2.weight f4 [16, 6, 5, 5]
000000 d4 3a ac bd 9e 6d ef bd 16 20 5b be b9 f1 6a be
       -0.08409658 -0.1169083 -0.21398959 -0.22943772
000010 e3 9f 82 bd c2 df 9f 3c e3 c2 85 bd f3 01 8c be
       -0.06378152 0.019515876 -0.06531312 -0.27345237
000020 ef 35 09 be 62 27 ce 3d 20 34 4f 3e 52 da d7 3d
       -0.1339948 0.100661054 0.20234728 0.10539688
000030 ea 26 07 bb 0f f7 11 3d 2e b9 cb 3d 45 5f 48 3e
       -0.002062256 0.035636004 0.099474296 0.19567592
000040 2c 83 fe 3d 47 b7 92 3d 6d b2 0a 3e 0b 19 9f 3d
       0.12427363 0.07163864 0.13544627 0.077684484
000050 4c 46 2b 3e 99 f8 c2 3d b9 42 8a 3d 99 08 ad 3d
       0.16726035 0.095200725 0.067510076 0.084489055
000060 d3 c1 e7 3d c9 fe 31 3e 29 02 9d 3c 2e 94 b8 3c
       0.11316266 0.17382349 0.01916607 0.022531595
000070 85 92 c4 3d 05 d7 12 3d 3b af b5 3d 65 d2 30 be
       0.09598259 0.03584959 0.08871313 -0.17267759
000080 ed 67 e2 bd 1e 77 02 3e b4 69 c4 3d 9c 21 33 3e
       -0.110549785 0.12740752 0.09590474 0.1749329
000090 cb e1 ed bd 1a b2 cb bd 91 3c 2e bd 41 d6 29 3e
       -0.11615332 -0.099460796 -0.04253823 0.16585638
0000a0 b4 73 95 3d c9 d2 13 3d 4c 58 42 3e 24 65 28 3e
       0.07297459 0.036089692 0.18978995 0.16444832
0000b0 bc b7 1e 3d 3f 1a 04 3d ff 18 73 3e f5 74 81 3e
       0.03874944 0.032251593 0.23740004 0.25284544
0000c0 79 70 4e 3e c2 38 6f bd ad 66 66 3e cf 09 37 3e
       0.20160092 -0.058403738 0.22500105 0.17874835
0000d0 b2 80 82 3e 3c f6 13 3e 80 f5 43 3e 52 00 d8 3d
       0.25488812 0.144494 0.1913662 0.10546936
0000e0 6f 00 1c bd 4f 9d d4 3c 1c b4 e6 3d 99 f1 b4 3d
       -0.03808635 0.025953917 0.11264822 0.088351436
0000f0 61 12 ca 3c 22 bc aa bd 48 76 c2 bd 83 de f6 bd
       0.024666967 -0.08336665 -0.094952166 -0.120541595
000100 ed c0 b6 bd 3a 5d be bd 1f 7b a7 3b fd d8 3b 3d
       -0.089235164 -0.09295125 0.0051111127 0.045861233
000110 22 7e 7f bd c6 02 06 be 97 50 68 bd ad be a9 bd
       -0.06237615 -0.13086995 -0.05671748 -0.08288322
000120 1e 9f 1c be 71 5a c9 bd ca d5 79 be 74 b2 b8 3d
       -0.15295073 -0.098317035 -0.2439796 0.09018412
000130 2b 29 1d 3d 99 f8 da bc b2 1c 8b bd cc dc df 3d
       0.03836934 -0.026729869 -0.067925826 0.109307855
000140 d8 7f 03 3d 53 67 8d 3e e1 fa 49 3e 66 c4 22 3e
       0.032104343 0.27617893 0.19724609 0.15895233
000150 6a a8 27 3e 51 ab cd bb 70 08 ed 3d 8c 67 63 3e
       0.16372839 -0.006276526 0.11573875 0.22207469
000160 c3 c8 61 3e 9f 43 4c 3d c6 24 d5 bc d8 4a 87 3d
       0.22049241 0.049869176 -0.026018512 0.06606072
000170 a7 fb af bd 17 fc ca bd a3 08 e1 bd 63 56 57 be
       -0.08592921 -0.099113636 -0.109879754 -0.21029048
000180 b7 ec d9 bd 1c 00 25 be a1 b9 2f be 85 2b 07 be
       -0.10640853 -0.16113323 -0.17160656 -0.13200195
000190 94 a3 fe 3c 65 bd 69 bb 46 da 84 3c 6c 41 bb bc
       0.03108386 -0.0035665866 0.016217362 -0.022858344
0001a0 5f ca 29 bd 55 5c 4f 3c af 83 48 3c df bf a4 3c
       -0.04145276 0.012656291 0.012238427 0.020111023
0001b0 29 ed e1 bc 54 bf f8 bc 13 b8 ae bd d5 95 2b 3c
       -0.027578907 -0.03036467 -0.08531203 0.010472734
0001c0 29 81 2a 3d 5a da 7c 3c b4 10 0e 3d 46 ce 69 bd
       0.041627083 0.015432918 0.034683898 -0.057081483
0001d0 c5 f3 a9 bd 38 bb 10 be 27 1d 0d be 10 7e 85 bd
       -0.082984485 -0.14133918 -0.13780652 -0.06518185
0001e0 f0 76 be 3c 9a 61 4b bd 98 c1 03 be df dc 5b bd
       0.023250073 -0.049653627 -0.12866819 -0.053677436
0001f0 4c 9d 3c bd 97 27 ad bd 2b aa 8e 3d 36 93 44 bd
       -0.046048447 -0.08454817 0.06966051 -0.047991954
000200 f4 ed 8e 3d d5 5f 89 bc 0b 22 ae 3d 8b 88 fd 3b
       0.0697898 -0.01676933 0.08502587 0.0077372245
000210 e5 2e 6f 3d 9c 4e ad 3d 2c 0a a3 bc ba e7 db 3b
       0.05839433 0.08462259 -0.019902311 0.0067109736
000220 3d fa 3f 3b 8a 37 5c 3c 30 89 69 bc 61 70 9f 3c
       0.002929344 0.013440976 -0.014253899 0.019462766
000230 b4 78 9c bb d5 e0 b8 bc a6 05 02 3d 8e fb 8f bc
       -0.004775131 -0.022568146 0.031743668 -0.017576005
000240 4c 7f 25 bc 7b 2e ae bc 4e 36 ff 3c 0a 7a 87 3d
       -0.010101151 -0.021262398 0.031153824 0.06615074
000250 71 31 5d bd 08 90 4a bd f7 f9 3f be 6f 45 87 be
       -0.05400223 -0.049453765 -0.18747698 -0.2642016
000260 96 95 e8 bd 0b 84 40 be 17 be 8b be 10 c5 6f bd
       -0.11356656 -0.1880037 -0.27293465 -0.058537543
000270 6d f8 ff ba bb 9c c3 bd a2 94 2d be 09 07 83 be
       -0.0019528993 -0.09551378 -0.1695123 -0.25591305
000280 4e c1 8c 3c 20 82 91 bd 19 6a 58 be 8d 15 43 bb
       0.017182019 -0.071048975 -0.21134223 -0.0029767484
000290 a1 68 ae 3c 1b 29 35 3e 2d 59 39 be d6 2f 14 bd
       0.021290125 0.17691462 -0.18100424 -0.036178432
0002a0 38 b6 01 3e 8a d9 d1 3d a5 ec e6 3d ac 5f 9b bd
       0.12667167 0.102465704 0.11275605 -0.07586607
0002b0 51 a3 40 3e 11 ec 08 3e 8e f5 bd 3b 21 38 0d 3e
       0.188123 0.13371302 0.0057970947 0.13790943
0002c0 02 47 c4 bd e7 e2 c7 3d 0d 20 7a 3d 5f 90 20 be
       -0.09583856 0.09760075 0.061065722 -0.15680073
0002d0 0c cb 92 3d f1 1b de 3d 69 f3 20 3e b5 3d 90 bb
       0.07167634 0.10845173 0.15717854 -0.0044018873
0002e0 9b ec 17 be ce 83 8e 3e 0c 87 d7 3d f5 d6 d5 3c
       -0.14836352 0.27834934 0.10523805 0.026103476
0002f0 b0 c0 08 3d 7b 1e 28 bc c4 fb 38 3e ae eb 9f 3c
       0.033386886 -0.010261173 0.18064791 0.01952156
000300 eb 3c a5 3d 6f 66 1b bd 93 e5 96 bd e3 f6 f9 bd
       0.0806826 -0.037939485 -0.073680066 -0.12205293
000310 16 a9 3b bd 0b f6 e2 bd ff 44 8c be 91 66 58 be
       -0.04581555 -0.11082085 -0.2739639 -0.21132876
000320 b1 3d 4d bd 15 58 07 bd 66 ac 0f bd e0 a3 f0 3c
       -0.05010766 -0.033042986 -0.03507652 0.029375017
000330 54 2d 16 3e f5 b0 57 bd 2d 4e 88 bd e9 47 25 be
       0.14665729 -0.052658994 -0.06655536 -0.16140713
000340 e8 7d 9a 3c 27 ef df 3d 92 71 3b be 01 da 3e be
       0.018858865 0.109342866 -0.18305042 -0.1863785
000350 22 b0 c6 bc a8 3e 4d 3d d8 60 9d 3d 66 46 cc bd
       -0.024253909 0.05010858 0.07684487 -0.09974365
000360 32 24 b1 bd 3e 37 2f 3d 46 f5 f0 3c 37 47 31 3e
       -0.08649482 0.042777292 0.02941383 0.17312323
000370 a4 fe c6 bd 05 fe 28 3c 59 8f af bb 50 12 27 3e
       -0.097165376 0.010314469 -0.0053576645 0.1631558
000380 9c 0f 8e 3e 06 89 56 3d dc 15 ba 3d 35 f4 9a 3d
       0.27746284 0.05237677 0.090862006 0.0756611
000390 d4 c1 5e 3d 7b f2 06 3e 7a ae 68 3d a9 b6 d0 bc
       0.054384068 0.13178436 0.05680702 -0.025477724
0003a0 b2 ae fd 3d ef 08 39 3e 43 0a 43 3e 09 a4 78 bd
       0.12386836 0.18069814 0.19046883 -0.06070331
0003b0 1d 94 ce bc 60 a7 b8 3d 92 a7 9b 3d d9 5f 6b 3d
       -0.02521711 0.09016299 0.07600321 0.057464454
0003c0 62 b3 c8 bd 12 61 25 3c 11 1c be 3c 3b 2a c1 3d
       -0.097998396 0.010093944 0.023206742 0.09431883
0003d0 00 f1 87 bd 5e e0 10 be 56 dd 33 bd 55 03 11 be
       -0.06637764 -0.1414809 -0.043912254 -0.14161427
0003e0 f3 cc 69 3d d8 7d b2 bd 01 9c e3 bd f6 01 f2 bd
       0.05708022 -0.08715409 -0.1111374 -0.1181678
0003f0 79 d7 e8 3c 2c 45 bc bc f5 33 91 bd 22 05 7b bc
       0.028423058 -0.022982202 -0.07089988 -0.015321048

conv2.bias f4 [16]
000000 19 b7 ef bd fb 33 56 be b0 c8 87 3e 4e 5f 37 3e
       -0.11704845 -0.20918266 0.265203 0.1790745
000010 f6 9b 82 3d 44 e6 82 3e 5c 84 a8 3e 5f 07 6d 3e
       0.063774034 0.25566304 0.32913482 0.23147343
000020 cc a1 1d be 1d 11 04 be 0a e4 b7 be 85 70 d3 bd
       -0.15393752 -0.12897153 -0.35916167 -0.10324196
000030 83 af 93 3e 2a 97 bc 3e 4b 34 4c bd 5f c2 42 bd
       0.28844842 0.3683408 -0.049854558 -0.047548648

fc1.weight f4 [256, 400]
000000 9a 1f d4 bc e2 98 e3 3a 94 31 49 bc aa 48 7c 3b
       -0.025893975 0.0017364288 -0.012279887 0.003849546
000010 93 34 aa bd cc ba db 3a 4c d0 73 3c 27 12 d6 bb
       -0.08310809 0.0016764044 0.014881205 -0.0065329256
000020 92 65 b2 bc 24 cd 4e bd 02 67 09 bc da 9d d8 3c
       -0.021776948 -0.050488606 -0.008386375 0.026442457
000030 cb 41 10 3c a2 94 46 bd 9f c9 1b bd 06 21 54 bd
       0.008804749 -0.04848159 -0.038034078 -0.051789306
000040 e2 4f af bd 9e e8 09 bc ec 11 5b bc 9d 52 6a bc
       -0.08560158 -0.008417277 -0.013370972 -0.014301923
000050 f2 f4 14 bd b6 6d 80 bd 8e ae 84 3d d4 78 29 3d
       -0.03636641 -0.06270926 0.06478606 0.041374996
000060 63 a1 54 3d 96 09 f7 bc fe 38 bd bd 1c dc 5f 3c
       0.051911723 -0.030155938 -0.09239386 0.013663318
000070 a1 23 f1 bc 55 96 b2 3c 0a 4a 20 bd b2 d5 a5 bd
       -0.029435934 0.0218002 -0.03913311 -0.080974
000080 3a a3 4f bd 75 22 cb bc 39 46 60 bd db 5f 52 3c
       -0.050692774 -0.024796704 -0.05475447 0.012840237
000090 74 d9 4f bd 44 e2 d7 bd fa 78 d3 bd a4 8e e8 ba
       -0.05074449 -0.105412036 -0.10325809 -0.0017742706
0000a0 f6 fc 84 3d 50 67 be 3c 7f 4b 59 bd 04 c8 7f 3b
       0.06493561 0.023242623 -0.053050514 0.003902913
0000b0 5e fd 14 bd 2e 07 b5 bc b1 3f 85 39 c1 a0 a4 3d
       -0.036374442 -0.02209815 0.0002541519 0.08038474
0000c0 fb 8e b1 3c 14 41 ae bc 39 de 0e ba 51 f4 42 3c
       0.021674624 -0.021271266 -0.0005449984 0.01189907
0000d0 3b d4 9d bd 2b e8 dd bc 5d 7c 8f bb 1f b5 e6 ba
       -0.077064954 -0.027088245 -0.004378839 -0.0017601586
0000e0 30 a5 77 bb 92 c3 c4 bd ba a3 d9 bc 99 42 3b 3a
       -0.0037787668 -0.096076146 -0.026567329 0.0007143408
0000f0 8f 75 e3 bc 45 14 66 bd 18 fd eb bc 69 64 60 bd
       -0.027766017 -0.056171674 -0.028807208 -0.05478326
000100 56 31 35 bd 48 a3 8b bd 4e b8 04 bd b7 25 da bb
       -0.044236504 -0.06818253 -0.03240233 -0.006657328
000110 0f ae ab bd 4f d6 e4 bc 5d 27 87 bd 73 c5 21 3a
       -0.083828084 -0.027934222 -0.06599305 0.0006171085
000120 63 06 4e bc 2f b6 08 bd cf 58 b1 bd 8f 1f d3 3c
       -0.012574765 -0.03337687 -0.08659517 0.025771884
000130 9f de 10 ba 12 1e 80 bd 55 eb 54 bd 85 5d 3a bc
       -0.0005526337 -0.062557355 -0.051982243 -0.011374836
000140 d3 d4 24 bc 53 fd 37 3d 78 6f 20 bd 53 b5 76 bd
       -0.010060507 0.044919323 -0.039168805 -0.060231518
000150 e4 da 7d bd 07 72 63 3d ed 59 38 3d 06 df 81 3b
       -0.06197633 0.055528667 0.045007635 0.003963354
000160 b3 3b 12 3d 04 50 16 bd 46 80 ca bc a6 06 00 bc
       0.035701465 -0.036697403 -0.024719369 -0.007814085
000170 d6 fb 89 bc b9 bf 85 bd da aa 65 bd 6c e4 93 bc
       -0.016843718 -0.06530709 -0.05607114 -0.018053256
000180 c0 61 9d bd 55 37 79 bd a6 2d 7a 38 df 99 50 3d
       -0.0768466 -0.060843784 5.964716e-05 0.050927993
000190 79 44 36 bd d1 97 dd bd cf 0d 9e bd e9 9a 96 bd
       -0.044498894 -0.10819972 -0.077174775 -0.073537655
0001a0 f1 60 5b bd 23 bc 56 3b 18 75 3a bd b8 68 89 bc
       -0.053559247 0.0032765947 -0.045521826 -0.016773567
0001b0 96 68 03 bd aa 45 1e bc 4d 84 65 3d e7 42 1a bd
       -0.032082163 -0.009660164 0.056034375 -0.03766146
0001c0 83 0d 16 3d 1f f1 91 3c 90 a5 ca bc f1 78 a0 39
       0.03663398 0.01781517 -0.02473715 0.00030607686
0001d0 ed 8f 79 3b a6 3b c6 bc 2e 01 0e bd 96 ec 93 3b
       0.0038080171 -0.024198364 -0.034669094 0.004514287
0001e0 11 15 25 bd b0 b9 5e bd 11 6f 4b bc a6 34 0a bd
       -0.040303294 -0.054376304 -0.012416617 -0.033741616
0001f0 41 cb 1d bd ec fb a6 bd e1 04 fe 3c 08 d4 0b 3d
       -0.038523916 -0.08153519 0.031008186 0.034137756
000200 97 70 b8 bc 7b bc 41 3d e6 46 59 bd 0f d3 8d bd
       -0.022514625 0.04729889 -0.05304613 -0.06925022
000210 a5 5e 9c bd 80 74 95 3c 61 c6 02 bd ec c6 28 b7
       -0.076352395 0.018244028 -0.03192747 -1.0059895e-05
000220 6f cf 41 3c 49 c3 4c bc 56 40 88 bd 49 89 95 3c
       0.011829241 -0.0124977315 -0.06652896 0.01825394
000230 47 f6 40 bd db ae 92 bc ad 64 4b bd 94 1e 8d bd
       -0.04710987 -0.017905643 -0.04965656 -0.06890598
000240 00 6f 82 3c bc ba 5e 3d 57 5f ba b9 17 b0 96 bd
       0.01592207 0.054377303 -0.00035547718 -0.07357805
000250 da 3a 6e 3d 8c 63 66 bd 09 b2 32 bd 1f a4 96 bd
       0.058161594 -0.05624728 -0.04362682 -0.07355522
000260 7e 73 a6 bc a1 d1 a1 bc 33 04 ed 3b 2a 00 8e bd
       -0.020318743 -0.01975328 0.0072331666 -0.06933625
000270 74 67 0c be 63 cb 8a bd 28 98 14 3d f3 ec 16 bd
       -0.13711339 -0.06777074 0.03627792 -0.036847066
000280 4d a3 8b bb 3b 9e d9 bd a8 6d 62 bd 6e 97 20 3c
       -0.0042614103 -0.10625883 -0.055280358 0.009801729
000290 c8 4c 27 3d 01 d0 5e bd 08 d0 9e bd 90 1c 5a bc
       0.04084471 -0.054397587 -0.077545226 -0.013312474
0002a0 54 64 7b bd 84 db 59 bb cb cf a6 3d ef ce 66 3d
       -0.061374977 -0.0033242414 0.08145102 0.05634969
0002b0 10 c8 ca bc 34 5d 89 bd 4a 8a 9d bc fe a8 80 bd
       -0.0247536 -0.0670723 -0.01923098 -0.06282233
0002c0 e8 df fa bc 48 31 81 3c ae f1 d9 bd a7 d0 58 bd
       -0.030624345 0.01577057 -0.106418 -0.05293336
0002d0 39 e0 ab bd 2b 79 b3 3c 50 5e ce bc bc 6d 1e bd
       -0.083923765 0.021908363 -0.025191456 -0.03867887
0002e0 c2 33 d6 bb a9 a2 b6 ba a0 b9 75 bd 1d 8c 2e bc
       -0.0065369317 -0.0013933975 -0.05999148 -0.010653523
0002f0 4b fd 96 bd ce 5a 21 bc 73 a5 21 bd 6a 8c fb bc
       -0.073725305 -0.00984831 -0.039464425 -0.030706603
000300 82 16 92 bd 71 2e b9 bd 6e 35 c9 bc 87 4e c1 ba
       -0.07133199 -0.09042061 -0.02456161 -0.0014748134
000310 5c 4d 99 bd 72 e8 7a bc da f5 27 bd 89 eb 58 3d
       -0.07485458 -0.015314208 -0.041005947 0.052959
000320 9c 11 e7 bd b0 05 81 bc e6 d7 7e 3b 31 6e 00 bd
       -0.112826556 -0.015749782 0.003888601 -0.031355087
000330 6f e5 e4 bd 89 7a ae bc 1b c7 bc bd 90 71 17 bd
       -0.111765735 -0.021298664 -0.09217664 -0.036973536
000340 aa 4d 49 3d 99 17 8e bd df ee 8d bd 61 d0 11 be
       0.04914633 -0.06938095 -0.06930327 -0.14239646
000350 d6 00 b2 bc d7 2d 41 bd d0 b7 6e bd 31 a3 79 bb
       -0.021728914 -0.047162857 -0.058280766 -0.0038091654
000360 5d e9 9b bd 41 3b a3 bd e2 e7 17 bd 7f 09 86 bd
       -0.0761287 -0.07970286 -0.037086375 -0.0654478
000370 71 e5 d0 3a a0 36 8d bd 9a bd 71 bd 04 60 9a bd
       0.001593752 -0.068951845 -0.05901871 -0.07537845
000380 7c c4 d0 bd 2b 55 cb 3c e2 21 1c 3d 9e 08 22 bd
       -0.101937264 0.024820885 0.03811825 -0.039559
000390 6e 07 ea ba 30 3f e9 3c 10 66 1e bd 44 51 7e bc
       -0.0017854997 0.028472513 -0.038671553 -0.015522305
0003a0 7e d2 03 bd 77 da 7c 3d ff 3b 4e 3d b2 8e 67 bc
       -0.032183163 0.06173178 0.050350185 -0.014133142
0003b0 16 e7 bd bd 33 fc d6 3a 93 a9 c2 3b 9f 5a 91 3c
       -0.09272592 0.0016402066 0.005940625 0.017743407
0003c0 f0 cd c4 bd d2 20 06 bc 59 7c 32 bd 50 92 27 3d
       -0.09609592 -0.008186536 -0.04357562 0.04091102
0003d0 cc 14 9f 3a 08 45 33 3c 79 6d e6 3b c5 72 00 bc
       0.0012136935 0.010941751 0.007032093 -0.007839863
0003e0 71 3e 67 bc 43 0f e2 3b 4a c6 32 bd 16 82 b3 bd
       -0.014114008 0.006898792 -0.043646134 -0.08765046
0003f0 79 83 99 bc 26 fe 88 bd 43 dd 21 bc 0f d6 6d bd
       -0.018739449 -0.066891 -0.009879413 -0.05806547

fc1.bias f4 [256]
000000 b3 6a ca bc 15 ea d1 3d e9 4f 89 bd 06 a8 2d 3e
       -0.024709081 0.10249726 -0.06704695 0.16958627
000010 58 a6 95 3d 69 47 ae bd e3 6d a8 bd 81 a0 a5 bd
       0.07307118 -0.08509714 -0.08224084 -0.08087254
000020 27 79 b8 bc 56 e8 66 bc 6e ae ee 3c 2f a6 b1 3c
       -0.022518707 -0.014093479 0.029135909 0.021685688
000030 3e 2f d6 3d db 35 61 3e 7d 9a 6f bb ce a6 cb 3e
       0.104582295 0.219932 -0.0036560588 0.397757
000040 a7 25 30 bd 6e c5 9e 3e 29 7f a1 bc 5f 87 48 be
       -0.043004658 0.31010002 -0.019713955 -0.1958289
000050 26 a1 61 bb 6e e0 ba 3c d9 36 b8 3d 82 d4 94 bd
       -0.0034428327 0.022812095 0.08994836 -0.07267095
000060 69 2a 4c 3d f1 f3 56 be c1 4c 1b bc f4 ca 91 3e
       0.049845133 -0.20991494 -0.009478749 0.28475153
000070 eb f0 98 3e cb e5 dc bc ea c0 0e bd 85 cd 9c 3d
       0.29871306 -0.026965043 -0.034851946 0.07656387
000080 74 d5 d7 bc 97 5c 42 3c b5 59 42 bd dc 29 3b bc
       -0.0263469 0.011862895 -0.047448833 -0.011423554
000090 75 b3 42 3c 3e 1b 2b 3e ad 08 6d 3d 35 5a 99 bd
       0.011883606 0.16709611 0.057869602 -0.07487909
0000a0 df b9 2f 3e b0 eb f6 3c 5e 95 c0 bc b9 33 3b bd
       0.17160748 0.030141681 -0.023508724 -0.045703623
0000b0 20 6b 6a bd 5e 3c bd 3e d8 29 fa 3e 8b 89 64 bd
       -0.05723107 0.3696012 0.4886005 -0.055795234
0000c0 7f da d0 bc b6 28 22 3e 5f 15 6e 3e 75 4f 8d bd
       -0.025494812 0.15835842 0.2325034 -0.06899921
0000d0 f8 b8 a4 3e 0e 31 0d bd 50 2f 5c bd 11 92 3b 3e
       0.3217237 -0.03447061 -0.05375606 0.18317439
0000e0 04 f0 27 3d eb b2 a4 3e fe 7a 74 bc cf 99 82 bd
       0.04100038 0.32167754 -0.014921902 -0.06376993
0000f0 4a 08 c0 3e bd 32 b9 3e 55 3c 86 3e 3a 05 8d bc
       0.37506324 0.36171523 0.26217905 -0.017214406
000100 c7 97 71 3d 0f a4 3e 3d 6a cf e0 bc e0 6f 33 bd
       0.058982637 0.046543177 -0.027442653 -0.043807864
000110 f9 10 ec 3d 3d 1a d6 3c 99 90 d9 3e 59 20 59 3e
       0.11526675 0.026135558 0.42493132 0.21203746
000120 ae de d6 3e 1d 3b 8f 3e ce a2 02 bc e9 93 8c bd
       0.41966766 0.27974787 -0.007973386 -0.06864149
000130 63 46 54 be 58 94 21 bd bd ac 38 bd 75 9d 89 bc
       -0.20729975 -0.039448112 -0.04508661 -0.016798714
000140 ad 41 55 be 6e 7e a8 3e 9b f4 16 be 48 7f 98 bc
       -0.20825835 0.32908958 -0.14741747 -0.01861538
000150 58 1e 5f bd 9d 09 96 3e 2a de 81 bd 80 96 4e bc
       -0.054472297 0.2930421 -0.063412026 -0.012609124
000160 18 27 de 3d 2a b8 e4 3d cf a4 9a 3d 25 fb 8b 3e
       0.108473 0.11167939 0.07550966 0.27340046
000170 99 8f 88 bd dd e0 08 3c 49 2c 12 bd b7 0a 2e 3e
       -0.06668014 0.008354393 -0.035686765 0.16996275
000180 e5 0e 56 bd 80 00 f1 bb b1 ae c0 bc 86 bf 91 3e
       -0.0522603 -0.007354796 -0.0235208 0.28466433
000190 44 ea ec 3d 98 d3 fe 3c ad 2b f2 3e 54 66 94 3d
       0.1156812 0.031106755 0.47298947 0.0724608
0001a0 ac d6 a1 3e 48 f5 74 3e 70 f3 d6 3e 9e 53 20 bd
       0.31609094 0.23921692 0.41982603 -0.039142244
0001b0 9e b1 65 3e c6 ed 03 3d 61 69 bf 3e 1e 4b b8 3e
       0.22431037 0.03220918 0.37385085 0.3599481
0001c0 75 5e 77 3d b3 04 ff 3c 98 21 06 3f 68 89 99 3e
       0.060392816 0.03113017 0.5239501 0.29987645
0001d0 c0 48 8d bc 7a 4e 61 be 1d 22 a1 bd 92 be 4c 3e
       -0.017246604 -0.22002593 -0.07867835 0.19994572
0001e0 73 d3 67 3e 3d 54 35 bc fb 93 17 3c e3 38 ae bc
       0.22639255 -0.011067447 0.00925159 -0.02126736
0001f0 11 e3 25 be 46 79 e8 3e b8 e7 53 3c 73 a1 bc 3e
       -0.161999 0.45405024 0.012933664 0.36841926
000200 9b f4 7a bd 06 9c 60 3e f6 5e 17 3d b3 ea 7b bc
       -0.06126843 0.21934518 0.036955796 -0.015375781
000210 62 03 8f 3d 87 ea 38 3e 0c 08 dd 3e 03 a5 0b 3d
       0.06983067 0.18058215 0.43170202 0.034092914
000220 16 ac ae be b9 19 4f 3b 37 64 0a be 25 cd 99 bd
       -0.34115666 0.0031601025 -0.13514791 -0.07509831
000230 be 94 aa bd 24 70 c5 bd f2 e8 6a 3c 22 83 68 3e
       -0.083291516 -0.0964053 0.014337765 0.22706273
000240 ff 3c 90 3b 75 81 aa 3e 23 06 73 3e 37 73 9a bb
       0.0044018026 0.33301893 0.2373281 -0.0047134417
000250 e1 d7 63 3e 55 d3 a7 3e ca 6c 92 3e 93 a9 62 bc
       0.2225032 0.3277842 0.28598624 -0.013834375
000260 0e 2a e6 39 98 ab ca 3d cb 1b 25 3e 3d ac 07 be
       0.00043900352 0.0989601 0.16123883 -0.13249297
000270 d3 89 54 bd c3 e4 20 3e 19 ef 13 3d 8c 80 91 be
       -0.051889252 0.15712266 0.036116693 -0.28418386
000280 e3 1b ae 3e 70 9a 96 bd 0e 01 61 bd ce 16 78 3e
       0.3400565 -0.07353675 -0.054932646 0.2422745
000290 68 0a 06 3c e7 91 81 bc 32 07 cb 3e 59 be 86 3e
       0.008181192 -0.015816642 0.39653927 0.263171
0002a0 b5 33 39 3e 0f f4 68 bc f5 0f 8a 3e 0c 5d 7b bd
       0.18086131 -0.014218344 0.269653 -0.061368033
0002b0 a2 89 79 bd 8d 3d c1 3e 01 68 8d 3e c1 f1 0a 3d
       -0.060922273 0.37742272 0.2761841 0.03392196
0002c0 4f ff ce 3c 17 22 0c 3d 6a 5b bd bd ba a7 f4 bc
       0.025268225 0.034212198 -0.092459515 -0.029865135
0002d0 b0 95 46 bd 38 a3 0d 3f f3 d7 12 bd 6a e8 10 bd
       -0.048482597 0.5532718 -0.035850476 -0.035377897
0002e0 5d ca d3 bc 68 6a 49 3e 2e cc aa bc ad 86 ab 3e
       -0.02585333 0.19669497 -0.020849314 0.33501187
0002f0 b1 55 df bd 5b fb 67 be 5e 3b 52 3e 67 c1 b7 bc
       -0.10905016 -0.22654478 0.2053046 -0.022431089
000300 ae 5a 12 3e 11 20 4b bd 4a 7b 95 3d a8 32 f7 3a
       0.14292404 -0.049591128 0.07298906 0.0018859701
000310 81 39 1d be 61 9b 5e 3c d5 ac b5 bb 0d eb ae 3d
       -0.15353967 0.01358685 -0.005544285 0.08540926
000320 e7 a5 b4 3d 00 3c 11 3d be 03 11 be 39 e0 eb bc
       0.08820706 0.03545761 -0.14161584 -0.028793441
000330 de ad a6 bc 0d 57 4e be ee 7e 4a ba 2c 33 9d 3e
       -0.020346578 -0.20150395 -0.00077246025 0.30703104
000340 1e 52 50 be 28 ba b3 3e 3a 32 a3 bd cd d2 45 3d
       -0.20343825 0.35102963 -0.07968564 0.04829674
000350 d1 69 45 bd ed b9 1e 3d ce cd 83 bc d2 cc 1a bd
       -0.048196618 0.03875153 -0.016089346 -0.037792988
000360 0f 4a a0 3e 1c 32 35 bc 40 4f 48 3e 5f 3f be bc
       0.31306502 -0.01105931 0.19561481 -0.023223577
000370 92 7e d6 3c 93 a4 10 bd 39 c5 ab 3e 8e a2 c4 3e
       0.0261834 -0.0353132 0.33548906 0.3840527
000380 b9 5e d0 3c 9c de 04 3e be 4f 72 ba 5d 5a a3 bd
       0.025435792 0.12975544 -0.000924345 -0.0797622
000390 38 b9 49 bd 84 f2 05 bd 2c 98 77 3a a2 5f 3e 3c
       -0.049248904 -0.032701984 0.00094449776 0.01161948
0003a0 eb 5c 5c be de 40 85 bd 51 42 d2 3b 6a bb 1a bd
       -0.2151982 -0.06506513 0.006416597 -0.03777639
0003b0 5f 95 ca 3e df b4 2c 3e 0e 31 1c 3e 9b dd f0 bc
       0.39567086 0.16865872 0.15253088 -0.029402545
0003c0 18 ed 15 3e 98 53 f2 3e bc e0 54 be 87 5c 19 3b
       0.14641225 0.47329402 -0.20788854 0.0023401098
0003d0 9b 7a b4 bc 06 30 11 3e b4 62 b7 3d 86 59 32 bc
       -0.02203112 0.14178476 0.08954373 -0.010885602
0003e0 95 9e 0b bd 7d f3 54 be 5d af 3b 3e 84 d7 33 bd
       -0.034086782 -0.20796008 0.18328615 -0.043906704
0003f0 c8 6b ae 3d d8 73 7c be bd a2 51 bd ff 80 13 bd
       0.085166514 -0.24653566 -0.05118059 -0.036011692

fc2.weight f4 [10, 256]
000000 5b 8c 2d bc de 95 d2 3b 71 bf 9f bc 84 d4 3d 3e
       -0.010592545 0.006426557 -0.019500466 0.185381
000010 6d 5f 0a 3e 54 7a 8b bd 25 ad 19 be 18 6e 4b bb
       0.13512965 -0.068104416 -0.15007456 -0.0031040963
000020 31 d7 f1 bc 24 c4 08 bd 84 91 17 3d 44 2b 21 bd
       -0.029521557 -0.03339018 0.03700401 -0.039347902
000030 0d e3 fb 3d 2f ab 01 3e 0a 4b 99 3c a7 09 0a 3e
       0.12299166 0.12662958 0.01871254 0.13480245
000040 0a 1e 86 3d b8 53 fc bc 95 e2 17 bb d3 83 c3 3d
       0.06548698 -0.030801639 -0.0023175825 0.09546628
000050 ff 97 e0 bd e2 a5 d8 3c 41 52 2e 3d b7 6e 0c bd
       -0.10966491 0.026446287 0.042558912 -0.034285273
000060 68 65 18 3e 1a fc 9d 3c 62 27 f0 3d 68 95 c4 be
       0.14882433 0.01928525 0.11726262 -0.38395238
000070 63 66 b2 be 64 a0 87 bd ef 57 2e 3c a6 12 3c be
       -0.3484374 -0.06622389 0.010641082 -0.18366489
000080 41 9f d2 bc 98 c1 7f 3c 3c 25 2b bd 82 68 dd 3c
       -0.025710704 0.015610121 -0.041783556 0.027027372
000090 fd e2 61 bd a0 2e 00 3e 63 71 4f be 93 a7 28 3b
       -0.055148114 0.12517786 -0.20258097 0.0025734648
0000a0 ec b7 b7 bd 91 84 2d bd 31 c9 97 bc f7 ca 36 bc
       -0.08970627 -0.042362753 -0.018528553 -0.011156789
0000b0 41 f4 8c bc 73 d9 d8 3d 74 7c 72 be f9 96 86 bd
       -0.017206313 0.1058835 -0.23680288 -0.065717645
0000c0 3a 17 a4 bc 37 9e 8b bd 38 b2 7e 3e 53 6d 16 bd
       -0.020030607 -0.068172865 0.24872673 -0.036725353
0000d0 c0 5d 15 be 80 8e 0f bd 3d 9d 24 be aa 14 eb bc
       -0.14586544 -0.035048008 -0.16075607 -0.028696377
0000e0 83 3b b2 bd 8e 31 2a 3d 74 e3 0c 3d 3b 25 42 bd
       -0.08702757 0.041551165 0.034396604 -0.047398787
0000f0 2a bc 0c be f7 29 8d bd 4a 60 85 be 2e 3e 34 3d
       -0.13743654 -0.0689277 -0.26050025 0.04400461
000100 9a eb ca bc 03 63 6e be 19 9f 42 3b 0b 88 da 3c
       -0.024770547 -0.23279957 0.002969688 0.026676198
000110 a9 9a 9f be 78 7b 99 3e bb 02 84 be 55 f3 ce 3d
       -0.31172684 0.29977012 -0.25783333 0.10105006
000120 fd 99 aa bd 1c 07 f5 bd 31 d5 8a 3d 84 40 56 bd
       -0.08330152 -0.11964247 0.06778944 -0.05230762
000130 f0 50 18 3e 9c ec ff 3c 73 70 fb bb 0b a8 d2 3d
       0.14874625 0.031240754 -0.007673317 0.10285958
000140 a7 72 92 bd d6 ce 9a 3d 5e 1a 6f 3e 80 f5 c3 3b
       -0.071507744 0.07558982 0.23349902 0.0059801936
000150 a2 f3 b5 bd 2f 43 0d be ca 4b e6 bb 37 ff a3 bc
       -0.0888436 -0.1379516 -0.0070280777 -0.020019157
000160 0c 9b af 3d fe 82 00 bd 9b 6f d3 3d 77 4a 6b be
       0.08574495 -0.031374924 0.103240214 -0.22977625
000170 6f e4 c7 bc 87 4f 01 3d fb 35 64 3b 7e 69 b9 3d
       -0.024400918 0.031569984 0.0034822214 0.09053324
000180 26 8e fc bc f2 bf 5f 3d ba 2d cd bc 5f 15 b9 bd
       -0.0308295 0.054626413 -0.025046218 -0.09037279
000190 8b a6 c3 3d 0f 4e 3c 3e dc cc 7e be 4f d1 d8 3d
       0.0955325 0.18389152 -0.24882835 0.105867974
0001a0 ed b2 8e be 21 a3 63 be fd 31 56 bd 51 b8 17 bd
       -0.27870885 -0.22230197 -0.052293766 -0.037041012
0001b0 dd f4 0c be f4 0b 3b bd e1 05 00 be 56 e9 3d be
       -0.13765283 -0.045665696 -0.12502243 -0.18546042
0001c0 d2 24 80 3d 47 22 2a bb b1 4e b7 be 86 1e b1 3d
       0.06257023 -0.0025960372 -0.35802224 0.086484
0001d0 a5 2c 2d 3d fa 2a 87 bd f3 e0 be 3d 66 84 7d bc
       0.042278904 -0.06599994 0.093202494 -0.015473461
0001e0 fa 09 63 3d 8e e8 99 3c ee 69 00 3e d6 fe 6e bd
       0.055429436 0.018787649 0.12540409 -0.0583485
0001f0 9e 80 f4 3d 0c 7d 2c 3e 36 93 6d bd 2a d8 e7 bd
       0.11938594 0.16844577 -0.05800172 -0.11320527
000200 fd ec 92 bc 16 80 68 bd ac 2e 97 bc 1e f8 4f 3b
       -0.01793527 -0.056762777 -0.018454872 0.0031733583
000210 a6 37 cc 3d c2 4b ee bd 38 1c 57 be 25 a8 30 be
       0.099715516 -0.116355434 -0.21006858 -0.17251642
000220 e0 76 14 3e e1 29 96 3d 6b cf a2 3d 57 99 d9 3c
       0.14498472 0.073322065 0.07949718 0.026562376
000230 d7 32 02 be cb 46 bc 3d 6a d4 4e bd d1 f4 8c bd
       -0.12714706 0.0919319 -0.050495543 -0.068826325
000240 b9 c1 22 bd 4d fa 94 3d f4 27 3a be 91 e7 8d bd
       -0.03973553 0.072743036 -0.18179303 -0.069289334
000250 2d 0c da bc 9a 83 d4 3d 24 fa 85 be 26 ae 20 3d
       -0.026617134 0.103766635 -0.26167405 0.03922858
000260 e2 12 b5 3d 73 5e a7 3d b0 47 26 3e 6a 3d 37 be
       0.08841492 0.08172312 0.16238284 -0.17894521
000270 a0 fe c9 3d 98 fe 03 be 82 02 db 3c 26 ef 4f bd
       0.09863019 -0.12890089 0.026734594 -0.05076518
000280 84 d1 c2 3d f0 a7 eb bc 1d 34 a6 3c 83 d3 ae be
       0.09512618 -0.028766602 0.020288521 -0.34145746
000290 01 55 d0 bc 0c 26 c7 3d 43 4d c1 3d bf d8 09 3e
       -0.025431158 0.09724054 0.09438565 0.13461588
0002a0 c5 bb 6f be dc d8 0a 3d 78 b4 41 3d 59 5a af bc
       -0.23411472 0.03389822 0.04729125 -0.021405386
0002b0 0f e3 0a bd 03 5f d7 3c fd dd 05 3d 4e 8e 03 3d
       -0.033907946 0.026290422 0.032682408 0.032118134
0002c0 89 13 0e bd 32 a8 cb 3d 20 ec 68 bd 14 81 5c bc
       -0.0346866 0.0994419 -0.05686581 -0.013458509
0002d0 78 91 ed 3c 58 39 da be ce 6d 52 3d 33 8f d8 3c
       0.029000029 -0.42621875 0.05137425 0.02643547
0002e0 e6 6e 98 bc 85 7c 45 be 2f 78 5c be b5 1a d3 3d
       -0.018607568 -0.19285782 -0.21530221 0.10307828
0002f0 c8 a5 14 3c 11 46 f8 3c da 08 86 3d 99 04 3e be
       0.009072728 0.030306848 0.06544657 -0.18556441
000300 27 5b 82 bd 16 b1 86 3d 71 44 e8 3d a1 3a f7 bc
       -0.06365042 0.06576745 0.11341179 -0.030179324
000310 d5 7d 00 3e b6 b6 1d bd 8f 3e 9c be 44 ce 70 be
       0.12548001 -0.038504325 -0.30516478 -0.23516184
000320 be 0f e9 bd 26 8d 45 3d 24 cb 1e 3e f4 cc c4 bd
       -0.11379956 0.048230313 0.1550718 -0.09609404
000330 ae 91 47 3c ec 74 e9 3d b1 2b 1c be 34 57 4b bd
       0.012180729 0.11399254 -0.15251042 -0.04964371
000340 fe 79 10 be 02 e6 36 3e 07 fb a3 bd b6 b9 55 bd
       -0.14109036 0.17861179 -0.08006864 -0.05217906
000350 68 84 16 bd 8b 3d dd 3d 73 eb 0e 3d ad ec ca 3b
       -0.036747366 0.10802754 0.03489251 0.0061927647
000360 cd f3 fa 3c 1b 55 8e 3d f4 66 53 be 32 9c 73 bd
       0.030633831 0.06949826 -0.20644742 -0.05947513
000370 3b af 96 be a2 cd fe bc 7a e2 62 be cc 8f 07 3d
       -0.29430565 -0.031103913 -0.22156706 0.03309612
000380 84 00 0b 3d e1 d6 a3 3d 1f 0a 75 bd 9c 74 3a 3e
       0.03393604 0.07999969 -0.059824105 0.18208545
000390 0d fe 6d 3b 26 48 de 3c aa 5a 79 bd 80 25 85 3a
       0.0036314756 0.027134012 -0.06087748 0.0010158271
0003a0 75 40 a3 3d 23 70 39 bd 11 9d 07 3c 68 c8 05 bd
       0.079712786 -0.045272958 0.008277194 -0.032661825
0003b0 bc 2d 8d be 0b f5 94 3d c1 e4 17 3e e4 2e 52 bc
       -0.27573955 0.07273301 0.14833356 -0.012828562
0003c0 3a 22 4f 3d e9 9f 18 be 11 5f 70 3e 7e cb ce bd
       0.05056975 -0.14904751 0.23473765 -0.10097407
0003d0 cc 2d 0a 3d 03 85 78 bd 6b 57 02 be 0d 6e 0b bc
       0.03373508 -0.060673725 -0.1272866 -0.008510125
0003e0 64 29 66 3c 29 c8 80 bd 8b 48 2e 3e 06 0f 2f 3d
       0.014047954 -0.062881775 0.1701986 0.042738937
0003f0 a1 e1 e7 bc 9c f3 86 3d a0 dd 08 3c f9 41 4a bd
       -0.02830583 0.065894336 0.008353621 -0.049379323

fc2.bias f4 [10]
000000 61 de 9d be 58 fc 66 be 86 f5 8c be 97 26 8b 3e
       -0.30833724 -0.22557199 -0.2753107 0.2717788
000010 47 7c 92 3e 33 1b 0e be e4 4c e0 bd 85 e6 2a bd
       0.2861044 -0.13877563 -0.10952166 -0.041723747
000020 f7 ae 2a bb 04 0a 88 3e
       -0.0026044229 0.2657014
